…
, 121, 62, 19, 19, 18, 80, 64, 147, 61, 11, 60, 10, 93, 139, 63, 123, 68, 69, 64, 56, 57, 70, 61, 61, 64, 14, 132, 60, 63, 99, 64, 75, 58, 60, 68, 65, 68, 98, 75, 69, 73, 92, 30, 54, 64, 68, 68, 68, 64, 65, 68, 68, 64, 68, 70, 11, 72, 63, 64, 72, 65, 64, 57, 73, 8, 191, 80, 7, 63, 61, 64, 26, 64, 57, 42, 14, 68, 198, 68, 17, 13, 13, 15, 50, 22, 65, 68, 15, 72, 120, 74, 22, 65, 66, 68, 68, 2, 72, 212, 20, 8, 104, 10, 13, 144, 17, 115, 40, 61, 63, 5, 64, 12, 66, 30, 16, 14, 14, 76, 10, 64, 46, 66, 33, 13, 12, 10, 17, 167, 70, 71, 13, 17, 11, 68, 32, 66, 14, 76, 97, 98, 4], "model": "DQN(\n  (fc1): Linear(in_features=120, out_features=128, bias=True)\n  (fc2): Linear(in_features=128, out_features=256, bias=True)\n  (lin1): Linear(in_features=256, out_features=256, bias=True)\n  (lin2): Linear(in_features=256, out_features=256, bias=True)\n  (lin3): Linear(in_features=256, out_features=256, bias=True)\n  (lin4): Linear(in_features=256, out_features=256, bias=True)\n  (lin5): Linear(in_features=256, out_features=256, bias=True)\n  (fc4): Linear(in_features=256, out_features=128, bias=True)\n  (fc5): Linear(in_features=128, out_features=64, bias=True)\n  (fc6): Linear(in_features=64, out_features=32, bias=True)\n  (head): Linear(in_features=32, out_features=3, bias=True)\n)", "gamma": 0.999, "epsilon_start": 0.99, "epsilon_end": 0.05, "epsilon_decay": 1000, "n_episodes": 1500, "batch_size": 512, "target_update": 30, "optimizer": "RMSprop (\nParameter Group 0\n    alpha: 0.99\n    centered: False\n    differentiable: False\n    eps: 1e-08\n    foreach: None\n    lr: 0.00025\n    maximize: False\n    momentum: 0\n    weight
…
