…
 510, 480, 510, 380, 530, 1140, 330, 580, 1130, 1050, 260, 300, 290, 260, 260, 290, 290, 290, 260, 270, 260, 290, 260, 260, 290, 300, 290, 290, 320, 290, 260, 260, 260, 260, 260, 270, 710, 1090, 480, 410, 380, 930, 360, 1030, 340, 400, 460, 1050, 1000, 470, 510, 1260, 370, 570, 310, 340, 280, 250, 170, 300, 330, 280, 340, 320, 260, 280, 250, 280, 280, 250, 280, 280, 170, 200, 230, 230, 280, 280, 280, 940, 410, 440, 1000, 430, 450, 1030, 380, 500, 1050, 500, 330, 190, 300, 280, 330, 340, 18420, 7370, 8820, 11380, 4150, 5260, 84870, 8630, 5710, 24860, 28810, 14950, 24050], "model": "DQN(\n  (fc1): Linear(in_features=120, out_features=64, bias=True)\n  (fc2): Linear(in_features=64, out_features=128, bias=True)\n  (fc3): Linear(in_features=128, out_features=256, bias=True)\n  (lin1): Linear(in_features=256, out_features=256, bias=True)\n  (lin2): Linear(in_features=256, out_features=256, bias=True)\n  (lin3): Linear(in_features=256, out_features=256, bias=True)\n  (lin4): Linear(in_features=256, out_features=256, bias=True)\n  (lin5): Linear(in_features=256, out_features=256, bias=True)\n  (fc4): Linear(in_features=256, out_features=128, bias=True)\n  (fc5): Linear(in_features=128, out_features=64, bias=True)\n  (fc6): Linear(in_features=64, out_features=32, bias=True)\n  (head): Linear(in_features=32, out_features=3, bias=True)\n)", "gamma": 0.999, "epsilon_start": 0.99, "epsilon_end": 0.05, "epsilon_decay": 50, "n_episodes": 2000, "batch_size": 512, "optimizer": "RMSprop (\nParameter Group 0\n    alpha: 0.99\n    centered: False\n    differentiable: False\n    eps: 1e-08\n    foreach: None\n    lr: 0.01\n    maximize: False\n    momentum: 0\n    weight_decay: 0\n)"}