…
2, 30, 22, 24, 29, 259, 26, 23, 20, 20, 18, 26, 24, 18, 28, 30, 23, 42, 18, 45, 16, 253, 26, 13, 173, 19, 30, 29, 33, 24, 51, 94, 20, 29, 19, 191, 64, 33, 24, 22, 20, 32, 24, 21, 71, 23, 24, 34, 28, 20, 32, 18, 63, 22, 19, 16, 200, 30, 23, 24, 35, 25, 33, 139, 28, 23, 19, 84, 20, 20, 25, 27, 19, 20, 289, 21, 28, 66, 25, 18, 30, 57, 40, 30, 195, 38, 23, 32, 41, 36, 179, 65, 25, 21, 23, 24, 61, 102, 23, 40, 84, 25, 26, 140, 27, 100, 61, 29, 27, 31, 49, 28, 43, 172, 21, 131, 41, 18, 34, 67, 79, 30, 27, 22, 27, 25, 55, 30, 156, 29, 26, 57, 29, 62, 28, 256, 37, 23, 202, 325], "model": "DQN(\n  (fc1): Linear(in_features=120, out_features=128, bias=True)\n  (fc2): Linear(in_features=128, out_features=256, bias=True)\n  (lin1): Linear(in_features=256, out_features=256, bias=True)\n  (lin2): Linear(in_features=256, out_features=256, bias=True)\n  (lin3): Linear(in_features=256, out_features=256, bias=True)\n  (lin4): Linear(in_features=256, out_features=256, bias=True)\n  (lin5): Linear(in_features=256, out_features=256, bias=True)\n  (fc4): Linear(in_features=256, out_features=128, bias=True)\n  (fc5): Linear(in_features=128, out_features=64, bias=True)\n  (fc6): Linear(in_features=64, out_features=32, bias=True)\n  (head): Linear(in_features=32, out_features=3, bias=True)\n)", "gamma": 0.999, "epsilon_start": 0.99, "epsilon_end": 0.05, "epsilon_decay": 500, "n_episodes": 1500, "batch_size": 512, "target_update": 30, "optimizer": "RMSprop (\nParameter Group 0\n    alpha: 0.99\n    centered: False\n    differentiable: False\n    eps: 1e-08\n    foreach: None\n    lr: 0.00025\n    maximize: False\n    momentum: 0\n    weight_
…
