…
, 5, 180, 24, 26, 19, 89, 21, 41, 32, 14, 17, 18, 15, 8, 19, 38, 27, 110, 162, 15, 20, 24, 512, 25, 19, 27, 25, 28, 31, 17, 5, 16, 18, 18, 16, 19, 19, 23, 19, 16, 9, 10, 4, 10, 7, 132, 20, 20, 36, 8, 21, 23, 22, 21, 20, 86, 28, 193, 19, 43, 16, 10, 127, 408, 21, 18, 21, 20, 34, 10, 22, 33, 18, 21, 15, 23, 21, 2, 71, 118, 71, 21, 76, 3, 88, 2, 16, 21, 19, 80, 30, 19, 177, 28, 81, 6, 92, 12, 75, 99, 14, 11, 19, 154, 17, 20, 15, 28, 68, 92, 106, 25, 66, 80, 15, 94, 87, 12, 19, 59, 24, 93, 108, 24, 78, 10, 71, 17, 96, 65, 98, 17, 18, 85, 149, 75, 99, 85, 82, 69, 72, 87, 95], "model": "DQN(\n  (fc1): Linear(in_features=120, out_features=128, bias=True)\n  (fc2): Linear(in_features=128, out_features=256, bias=True)\n  (lin1): Linear(in_features=256, out_features=256, bias=True)\n  (lin2): Linear(in_features=256, out_features=256, bias=True)\n  (lin3): Linear(in_features=256, out_features=256, bias=True)\n  (lin4): Linear(in_features=256, out_features=256, bias=True)\n  (lin5): Linear(in_features=256, out_features=256, bias=True)\n  (fc4): Linear(in_features=256, out_features=128, bias=True)\n  (fc5): Linear(in_features=128, out_features=64, bias=True)\n  (fc6): Linear(in_features=64, out_features=32, bias=True)\n  (head): Linear(in_features=32, out_features=3, bias=True)\n)", "gamma": 0.999, "epsilon_start": 0.99, "epsilon_end": 0.05, "epsilon_decay": 1500, "n_episodes": 1500, "batch_size": 512, "target_update": 30, "optimizer": "RMSprop (\nParameter Group 0\n    alpha: 0.99\n    centered: False\n    differentiable: False\n    eps: 1e-08\n    foreach: None\n    lr: 0.00025\n    maximize: False\n    momentum: 0\n    weight
…
