…
1290, 270, 300, 300, 280, 2240, 700, 290, 490, 250, 1670, 440, 3340, 2160, 3210, 330, 750, 1100, 1140, 470, 2430, 230, 240, 570, 2830, 2520, 340, 2180, 400, 2060, 1500, 2300, 1790, 340, 2440, 620, 380, 1700, 510, 500, 460, 2250, 720, 1970, 570, 980, 1440, 510, 1340, 1530, 2160, 260, 250, 360, 220, 750, 650, 2830, 300, 350, 1010, 90, 200, 210, 210, 200, 2060, 1170, 860, 1100, 1820, 1170, 150, 240, 500, 1450, 2160, 200, 720, 200, 280, 220, 280, 430, 360, 1280, 210, 80, 160, 200, 480, 220, 670, 750, 520, 350, 2570, 980, 900, 830, 1460, 900, 1110, 660, 240, 240, 3190, 1330], "model": "DQN(\n  (fc1): Linear(in_features=120, out_features=64, bias=True)\n  (fc2): Linear(in_features=64, out_features=128, bias=True)\n  (fc3): Linear(in_features=128, out_features=256, bias=True)\n  (lin1): Linear(in_features=256, out_features=256, bias=True)\n  (lin2): Linear(in_features=256, out_features=256, bias=True)\n  (lin3): Linear(in_features=256, out_features=256, bias=True)\n  (lin4): Linear(in_features=256, out_features=256, bias=True)\n  (lin5): Linear(in_features=256, out_features=256, bias=True)\n  (fc4): Linear(in_features=256, out_features=128, bias=True)\n  (fc5): Linear(in_features=128, out_features=64, bias=True)\n  (fc6): Linear(in_features=64, out_features=32, bias=True)\n  (head): Linear(in_features=32, out_features=3, bias=True)\n)", "gamma": 0.999, "epsilon_start": 0.9, "epsilon_end": 0.01, "epsilon_decay": 0.999, "n_episodes": 2000, "batch_size": 32, "optimizer": "RMSprop (\nParameter Group 0\n    alpha: 0.99\n    centered: False\n    differentiable: False\n    eps: 1e-08\n    foreach: None\n    lr: 0.01\n    maximize: False\n    momentum: 0\n    weight_decay: 0\n)"}